…
174/174 [==============================] - 102s 586ms/step - loss: 0.0291 - acc: 0.1083 - val_loss: 0.0284 - val_acc: 0.1139
Epoch 29/30
174/174 [==============================] - 103s 589ms/step - loss: 0.0287 - acc: 0.1083 - val_loss: 0.0282 - val_acc: 0.1139
Epoch 30/30
174/174 [==============================] - 109s 628ms/step - loss: 0.0285 - acc: 0.1088 - val_loss: 0.0292 - val_acc: 0.1139

----> 1 time out of road,

Maybe good version:
_________________________________________________________________
Layer (type)                 Output Shape              Param #
=================================================================
lambda_1 (Lambda)            (None, 160, 320, 3)       0
_________________________________________________________________
cropping2d_1 (Cropping2D)    (None, 65, 320, 3)        0
_________________________________________________________________
conv2d_1 (Conv2D)            (None, 31, 158, 24)       1824
_________________________________________________________________
conv2d_2 (Conv2D)            (None, 14, 77, 36)        21636
_________________________________________________________________
conv2d_3 (Conv2D)            (None, 5, 37, 48)         43248
_________________________________________________________________
conv2d_4 (Conv2D)            (None, 3, 35, 64)         27712
_________________________________________________________________
conv2d_5 (Conv2D)            (None, 1, 33, 64)         36928
_________________________________________________________________
flatten_1 (Flatten)          (None, 2112)              0
_________________________________________________________________
dense_1 (Dense)              (None, 100)               211300
_________________________________________________________________
dropout_1 (Dropout)          (None, 100)               0
_________________________________________________________________
dense_2 (Dense)              (None, 50)                5050
_________________________________________________________________
dense_3 (Dense)              (None, 10)                510
_________________________________________________________________
dense_4 (Dense)              (None, 1)                 11
=================================================================
Total params: 348,219
Trainable params: 348,219
Non-trainable params: 0


2019-04-13 18:43:24.872276: I tensorflow/stream_executor/dso_loader.cc:152] successfully opened CUDA library libcublas.so.10.1 locally
238/238 [==============================] - 126s 527ms/step - loss: 0.0282 - acc: 0.0497 - val_loss: 0.0227 - val_acc: 0.0523
…
238/238 [==============================] - 125s 525ms/step - loss: 0.0164 - acc: 0.0497 - val_loss: 0.0156 - val_acc: 0.0523
Epoch 9/10
238/238 [==============================] - 126s 532ms/step - loss: 0.0159 - acc: 0.0497 - val_loss: 0.0149 - val_acc: 0.0523
Epoch 10/10
238/238 [==============================] - 129s 541ms/step - loss: 0.0155 - acc: 0.0496 - val_loss: 0.0150 - val_acc: 0.0523
Epoch 00010: early stopping


_________________________________________________________________
Layer (type)                 Output Shape              Param #
=================================================================
lambda_1 (Lambda)            (None, 160, 320, 3)       0
_________________________________________________________________
cropping2d_1 (Cropping2D)    (None, 65, 320, 3)        0
_________________________________________________________________
conv2d_1 (Conv2D)            (None, 31, 158, 24)       1824
_________________________________________________________________
batch_normalization_1 (Batch (None, 31, 158, 24)       96
_________________________________________________________________
conv2d_2 (Conv2D)            (None, 14, 77, 36)        21636
_________________________________________________________________
batch_normalization_2 (Batch (None, 14, 77, 36)        144
_________________________________________________________________
conv2d_3 (Conv2D)            (None, 5, 37, 48)         43248
_________________________________________________________________
batch_normalization_3 (Batch (None, 5, 37, 48)         192
_________________________________________________________________
conv2d_4 (Conv2D)            (None, 3, 35, 64)         27712
_________________________________________________________________
batch_normalization_4 (Batch (None, 3, 35, 64)         256
_________________________________________________________________
conv2d_5 (Conv2D)            (None, 1, 33, 64)         36928
_________________________________________________________________
batch_normalization_5 (Batch (None, 1, 33, 64)         256
_________________________________________________________________
flatten_1 (Flatten)          (None, 2112)              0
_________________________________________________________________
dense_1 (Dense)              (None, 100)               211300
_________________________________________________________________
dropout_1 (Dropout)          (None, 100)               0
_________________________________________________________________
dense_2 (Dense)              (None, 50)                5050
_________________________________________________________________
dense_3 (Dense)              (None, 10)                510
_________________________________________________________________
dense_4 (Dense)              (None, 1)                 11
=================================================================
Total params: 349,163
Trainable params: 348,691
Non-trainable params: 472


238/238 [==============================] - 149s 625ms/step - loss: 0.2770 - acc: 0.0335 - val_loss: 0.0394 - val_acc: 0.0506
Epoch 2/10
238/238 [==============================] - 148s 621ms/step - loss: 0.0580 - acc: 0.0490 - val_loss: 0.0282 - val_acc: 0.0510
…
